…
t_type":"stream","name":"stdout","text":"Model: \"model\"\n\n__________________________________________________________________________________________________\n\n Layer (type)                Output Shape                 Param #   Connected to                  \n\n==================================================================================================\n\n input (InputLayer)          [(None, 178)]                0         []                            \n\n                                                                                                  \n\n batch_normalization (Batch  (None, 178)                  712       ['input[0][0]']               \n\n Normalization)                                                                                   \n\n                                                                                                  \n\n batch_normalization_1 (Bat  (None, 178)                  712       ['input[0][0]']               \n\n chNormalization)                                                                                 \n\n                                                                                                  \n\n batch_normalization_2 (Bat  (None, 178)                  712       ['input[0][0]']               \n\n chNormalization)                                                                                 \n\n                                                                                                  \n\n dense (Dense)               (None, 256)                  45824     ['batch_normalization[0][0]'] \n\n                                                                                                  \n\n dense_4 (Dense)             (None, 512)                  91648     ['batch_normalization_1[0][0]'\n\n                                                                    ]                             \n\n                                                                                                  \n\n dense_8 (Dense)             (None, 1024)                 183296    ['batch_normalization_2[0][0]'\n\n                                                                    ]                             \n\n                                                                                                  \n\n dropout (Dropout)           (None, 256)                  0         ['dense[0][0]']               \n\n                                                                                                  \n\n dropout_3 (Dropout)         (None, 512)                  0         ['dense_4[0][0]']             \n\n                                                                                                  \n\n dropout_6 (Dropout)         (None, 1024)                 0         ['dense_8[0][0]']             \n\n                                                                                                  \n\n dense_1 (Dense)             (None, 256)                  65792     ['dropout[0][0]']             \n\n                                                                                                  \n\n dense_5 (Dense)             (None, 512)                  262656    ['dropout_3[0][0]']           \n\n                                                                                                  \n\n dense_9 (Dense)             (None, 1024)                 1049600   ['dropout_6[0][0]']           \n\n                                                                                                  \n\n dropout_1 (Dropout)         (None, 256)                  0         ['dense_1[0][0]']             \n\n                                                                                                  \n\n dropout_4 (Dropout)         (None, 512)                  0         ['dense_5[0][0]']             \n\n                                                                                                  \n\n dropout_7 (Dropout)         (None, 1024)                 0         ['dense_9[0][0]']             \n\n                                                                                                  \n\n dense_2 (Dense)             (None, 256)                  65792     ['dropout_1[0][0]']           \n\n                                                                                                  \n\n dense_6 (Dense)             (None, 512)                  262656    ['dropout_4[0][0]']           \n\n                                                                                                  \n\n dense_10 (Dense)            (None, 1024)                 1049600   ['dropout_7[0][0]']           \n\n                                                                                                  \n\n dropout_2 (Dropout)         (None, 256)                  0         ['dense_2[0][0]']             \n\n                                                                                                  \n\n dropout_5 (Dropout)         (None, 512)                  0         ['dense_6[0][0]']             \n\n                                                                                                  \n\n dropout_8 (Dropout)         (None, 1024)                 0         ['dense_10[0][0]']            \n\n                                                                                                  \n\n dense_3 (Dense)             (None, 178)                  45746     ['dropout_2[0][0]']           \n\n                                                                                                  \n\n dense_7 (Dense)             (None, 178)                  91314     ['dropout_5[0][0]']           \n\n                                                                                                  \n\n dense_11 (Dense)            (None, 178)                  182450    ['dropout_8[0][0]']           \n\n                                                                                                  \n\n concatenate (Concatenate)   (None, 534)                  0         ['dense_3[0][0]',             \n\n                                                                     'dense_7[0][0]',             \n\n                                                                     'dense_11[0][0]']            \n\n                                                                                                  \n\n dense_12 (Dense)            (None, 128)                  68480     ['concatenate[0][0]']         \n\n                                                                                                  \n\n output (Dense)              (None, 1)                    129       ['dense_12[0][0]']            \n\n                                                                                                  \n\n==================================================================================================\n\nTotal params: 3467119 (13.23 MB)\n\nTrainable params: 3466051 (13.22 MB)\n\nNon-trainable params: 1068 (4.17 KB)\n\n_______________________________________
…
a":{"colab":{"base_uri":"https://localhost:8080/"},"id":"0qeFBoWv8nFz","outputId":"21eead5a-75ed-4361-c543-7bdeb5fb761f"},"execution_count":null,"outputs":[{"output_type":"stream","name":"stdout","text":"Model: \"model_1\"\n\n_________________________________________________________________\n\n Layer (type)                Output Shape              Param #   \n\n=================================================================\n\n inputs_cnn (InputLayer)     [(None, 178, 1)]          0         \n\n                                                                 \n\n conv1d (Conv1D)             (None, 173, 32)           224       \n\n                                                                 \n\n batch_normalization_3 (Bat  (None, 173, 32)           128       \n\n chNormalization)                                                \n\n                                                                 \n\n max_pooling1d (MaxPooling1  (None, 87, 32)            0         \n\n D)                                                              \n\n                                                                 \n\n conv1d_1 (Conv1D)           (None, 85, 64)            6208      \n\n                                                                 \n\n batch_normalization_4 (Bat  (None, 85, 64)            256       \n\n chNormalization)                                                \n\n                                                                 \n\n max_pooling1d_1 (MaxPoolin  (None, 43, 64)            0         \n\n g1D)                                                            \n\n                                                                 \n\n flatten (Flatten)           (None, 2752)              0         \n\n                                                                 \n\n dense_13 (Dense)            (None, 32)                88096     \n\n                                                                 \n\n dense_14 (Dense)            (None, 16)                528       \n\n                                                                 \n\n dense_15 (Dense)            (None, 2)                 34        \n\n                                                                 \n\n=================================================================\n\nTotal params: 95474 (372.95 KB)\n\nTrainable params: 95282 (372.20 KB)\n\nNon-trainable params: 192 (768.00 Byte)\n\n_________________________________________________________________\n\nNone\n"}]},{"cell_type":"code","source":"from keras.utils import
…
